models/fc100_09.pt (torch_old, 318764 bytes, 4 tensors)

fc1.weight f4 [100, 784]
0	0xbd7d8aa0	-0.06189978
1	0xbd01d65c	-0.03169857
2	0xbd504e76	-0.050856076
3	0xbb26584a	-0.0025382214
4	0xbc7bffa2	-0.015380772
5	0xbcec71c8	-0.028862849
6	0xbd2a1ad6	-0.0415295
7	0xbd77f6f4	-0.060538247
8	0xbd417ce0	-0.04723823
9	0x3b507b39	0.0031811728
10	0xbd4ca148	-0.049958497
11	0xbcbbe5c0	-0.022936702
12	0xbcc1dc09	-0.023664491
13	0x3b69ebef	0.0035693606
14	0xbd4738ee	-0.048638277
15	0xbd5f06e4	-0.05444993
16	0xbd77cb54	-0.060496643
17	0xbc87460c	-0.016512893
18	0xbc1b98f8	-0.00949692
19	0xbd6b6712	-0.057471342
20	0x3b5b4261	0.0033456313
21	0xbd6ba380	-0.057528973
22	0xbd191059	-0.037369106
23	0xbb081569	-0.0020764715
24	0xbc383d20	-0.011245042
25	0x3b4348ba	0.0029797987
26	0xbd558734	-0.052130893
27	0x3918cdd3	0.00014572525
28	0xbb34995c	-0.002755723
29	0xbd7f421e	-0.062318914
30	0xbc86963b	-0.016429057
31	0xbbf74a3e	-0.007546692
32	0xbb879054	-0.0041370783
33	0xbd506c1a	-0.050884344
34	0xbd409ebd	-0.047026385
35	0xbc9c462d	-0.019076431
36	0xbd444be7	-0.04792395
37	0x3bca11cf	0.0061666737
38	0x3b7461d4	0.0037289755
39	0xbcb631df	-0.022240577
40	0x3b013517	0.0019715482
41	0xbd48c96d	-0.04902022
42	0xbd6976f4	-0.05699821
43	0xbd0dcac6	-0.034617208
44	0xbd83d3a2	-0.0643685
45	0xbccadedd	-0.024764473
46	0x3c8e5420	0.017374098
47	0xbca8922e	-0.020577516
48	0xbbd06eab	-0.006360849
49	0xbcf2a197	-0.029618068
50	0x3c0de00e	0.008659376
51	0xbcee80a8	-0.029114082
52	0xbc2b183a	-0.010442788
53	0xbd406ea0	-0.0469805
54	0xbaee3ebb	-0.0018176654
55	0xbd1fad46	-0.038983606
56	0xbbf63ed0	-0.007514812
57	0xbb1f566a	-0.0024312981
58	0xbcb33130	-0.02187404
59	0xbd6ba44e	-0.05752974
60	0xbd7b7fed	-0.061401296
61	0xbc72b7aa	-0.014814297
62	0xbd3547ed	-0.044258047
63	0xbce551c6	-0.027993094
64	0x3d6f1146	0.058366083
65	0x3ca94d00	0.0206666
66	0x3d5ddd57	0.054166164
67	0x3c637ae6	0.013884282
68	0x3d5103c6	0.05102899
69	0x3dd8a5ef	0.10578524
70	0x3dfef148	0.124483645
71	0x3d94d878	0.07267851
72	0x3c6c81fc	0.014435288
73	0x3d11bc99	0.03558025
74	0x3ca0ca6f	0.019627778
75	0x3d412969	0.047158632
76	0x3d5ba00f	0.05361944
77	0x3adf2736	0.0017025236
78	0xbc044636	-0.00807338
79	0xbd4c4035	-0.04986592
80	0xbd3b749f	-0.045765515
81	0xbd5267dd	-0.051368583
82	0xbd0151e9	-0.031572256
83	0xbd7db914	-0.061944082
84	0xbcca442c	-0.02469071
85	0xbd5e4d6e	-0.05427306
86	0xbca9f9a0	-0.020748913
87	0xbd3fc9fd	-0.04682349
88	0xbcdc89cd	-0.026921177
89	0x3cfd2a37	0.030903919
90	0xbb0e5538	-0.0021718275
91	0x3d83d4c9	0.0643707
92	0x3d3832f5	0.04497047
93	0x3d9e427b	0.07727524
94	0x3dc69dfe	0.09698103
95	0x3e4f8c57	0.20268379
96	0x3e2ffda7	0.17186604
97	0x3e339c81	0.1754017
98	0x3e732ca8	0.23747504
99	0x3e0d9e86	0.13830003
100	0x3b532de3	0.0032223396
101	0xbdb260d8	-0.08709878
102	0x3da38170	0.079836726
103	0x3dff613a	0.12469716
104	0x3d81eea5	0.06344346
105	0x3d1bd458	0.038044304
106	0xbcf62600	-0.030047417
107	0x3c6e395b	0.014540042
108	0xbc3cbf89	-0.011520275
109	0xbd551793	-0.052024435
110	0x3b3b9582	0.002862305
111	0xbc614ae2	-0.013750764
112	0xbd2ee1ec	-0.042695925
113	0xbce26696	-0.027636807
114	0xbd02cf20	-0.03193581
115	0x3b66fb83	0.0035245128
116	0xba656975	-0.0008751371
117	0x3d974750	0.07386649
118	0x3c93bedd	0.018035347
119	0x3d061ae1	0.032740477
120	0x3dd7eb77	0.10542958
121	0x3dcdf987	0.10057359
122	0x3db1adbd	0.08675716
123	0x3d1ff5f5	0.039052922
124	0x3e048402	0.12940982
125	0x3d68efab	0.05686919
126	0xbd5d7368	-0.054065138
127	0xbe0b83f0	-0.13624549
128	0xbe2ce030	-0.16882396
129	0xbda9743e	-0.082741246
130	0xbc8f5b49	-0.017499583
131	0x3cb108f1	0.021610709
132	0x3bfa966c	0.007647326
133	0xbd4ed5e4	-0.05049695
134	0xbe29b6a1	-0.16573574
135	0xbe271556	-0.16316733
136	0xbca76f9a	-0.020438958
137	0x3b9ab42e	0.004721186
138	0xbc272054	-0.010200579
139	0x3c0ddef4	0.008659113
140	0xbcab1b20	-0.020886958
141	0xbc8f1680	-0.017466784
142	0xbd4f2a46	-0.050577424
143	0xbd49ffe3	-0.0493163
144	0x3c3e248d	0.011605394
145	0x3cb8df52	0.022567425
146	0xbcdd78eb	-0.027035197
147	0x3c98987c	0.018627398
148	0xbcc09f27	-0.02351339
149	0xbe2bd0ee	-0.16778919
150	0xbe516672	-0.20449236
151	0xbe040e56	-0.12896094
152	0xbd9c4e99	-0.07632179
153	0xbdbbdd7a	-0.09173103
154	0xbe1f2fa6	-0.1554552
155	0xbe9d1552	-0.3068033
156	0xbe9dba00	-0.3080597
157	0xbe135ab2	-0.14390066
158	0xbe59ef10	-0.21282601
159	0xbe0c099c	-0.1367554
160	0xbe5e70e5	-0.21722753
161	0xbe6e54b0	-0.23274493
162	0xbe85447d	-0.26028815
163	0xbe705f03	-0.23473744
164	0xbd97bbb1	-0.07408846
165	0x3d50da4f	0.050989445
166	0x3b88478a	0.0041589187
167	0xbd84bfd5	-0.064819016
168	0xbcb3eaf2	-0.021962617
169	0xbd4ba0d8	-0.04971394
170	0xbd4b966e	-0.049704008
171	0xbd749aaf	-0.05971783
172	0xbc817b03	-0.015805727
173	0xbcf146b1	-0.029452654
174	0xbdc1d4db	-0.09464427
175	0xbd344564	-0.04401149
176	0xbdf4d3e5	-0.11954478
177	0xbde25d60	-0.11052966
178	0xbdeba9b9	-0.115069814
179	0xbc760769	-0.015016415
180	0x3c488e56	0.012240967
181	0xbdd8e235	-0.105900206
182	0xbd8f28e1	-0.06990219
183	0xbba7a187	-0.005115691
184	0xbd0c2649	-0.0342162
185	0x3cc1a82a	0.023639757
186	0x3c34da90	0.0110384375
187	0x3cb0ee5b	0.021598032
188	0x3d6663d5	0.05624755
189	0xbd81e31c	-0.06342146
190	0xbe0e4eab	-0.13897197
191	0xbcc3ab1a	-0.023885299
192	0xbca4ed38	-0.020132646
193	0xbdb433f4	-0.08798972
194	0xbcea55e8	-0.028605416
195	0xbd32fbc9	-0.043697152
196	0xbd8521d5	-0.065005936
197	0xbd10e361	-0.035373095
198	0xbd1a5ee1	-0.03768814
199	0xbd3c160d	-0.045919467
200	0x3b94df9f	0.0045432593
201	0xbd512d4b	-0.051068585
202	0xbdd1bc0d	-0.10240946
203	0xbbdd339b	-0.0067505366
204	0xbd333344	-0.043750063
205	0xbd9a03d6	-0.07520263
206	0x3cc9d7a4	0.024638958
207	0x3def6c63	0.11690595
208	0x3c97af88	0.018516317
209	0xbd258c2b	-0.040416878
210	0x3cb2149b	0.021738341
211	0x3e2abe4a	0.16674152
212	0xbc47112c	-0.01215009
213	0xbc824282	-0.015900854
214	0x3d836633	0.06415977
215	0x3dfb4227	0.12268477
216	0x3ce2be56	0.02767865
217	0xbc68be63	-0.014205548
218	0xbdbab4e4	-0.091165334
219	0x3d82c422	0.063850656
220	0xbd020a9a	-0.03174839
221	0xbe067a1b	-0.13132517
222	0xbbaa83ac	-0.005203685
223	0xbcae05cc	-0.021242999
224	0xbd23781b	-0.039909463
225	0x392139da	0.00015375708
226	0xbd58ec5a	-0.052959777
227	0xbd6e8a8e	-0.058237605
228	0x3d119f65	0.0355524
229	0x3c0a4ef7	0.008441678
230	0xbc11d148	-0.008899994
231	0x3e1dd4ab	0.15413158
232	0x3da7c051	0.08190978
233	0xbc38310d	-0.011242163
234	0x3d63fe24	0.05566229
235	0x3ce5bd5f	0.0280444
236	0xbd6e416a	-0.058167852
237	0xbc8fb1dd	-0.017540867
238	0x3b82ee37	0.0039956826
239	0xbd5a11c8	-0.053239614
240	0xbbbb9d6c	-0.0057255533
241	0xbdb61cd7	-0.088922195
242	0x3d432507	0.047642734
243	0x3daf020e	0.08545314
244	0x3d5d4cb0	0.054028213
245	0xbba6eba9	-0.005094011
246	0xbc313f71	-0.010818348
247	0xbdb07103	-0.08615305
248	0x3cfc3b0b	0.030789873
249	0x3ca7cb7c	0.020482771
250	0xbc36dcab	-0.01116101
251	0xbc897f29	-0.016784268
252	0xbcf077c1	-0.029353978
253	0xbca98fbf	-0.020698426
254	0x3c1f3b53	0.009718734
255	0xbd5019af	-0.050805744

fc1.bias f4 [100]
0	0x3d843c43	0.064568065
1	0x3d215de3	0.039396178
2	0x3d5ee0eb	0.054413717
3	0x3c808e90	0.01569298
4	0xbc996c3a	-0.018728364
5	0x3cd389e9	0.025822597
6	0x3d404b18	0.046946615
7	0x3cdcf236	0.026970964
8	0xbd2a7cb1	-0.04162282
9	0x3c400f89	0.011722454
10	0xbbb6aea4	-0.005575018
11	0x3c7a2b3e	0.015269099
12	0xbd03464d	-0.032049466
13	0xbd88b0e8	-0.06674367
14	0xbcd707ed	-0.026248896
15	0xbcabbb16	-0.020963233
16	0xbd2e18ff	-0.042504307
17	0x3caec871	0.021335812
18	0xbca77e1a	-0.020445872
19	0xbcb83027	-0.022483898
20	0xbb9505ae	-0.004547796
21	0x3bcf4376	0.0063251806
22	0x3d07f253	0.033190083
23	0x3cdeee62	0.02721328
24	0x3cb43007	0.021995557
25	0xbc186437	-0.009301237
26	0xbd74b84f	-0.059746083
27	0x3c58673e	0.013208209
28	0xbd13e699	-0.036108587
29	0xbc621438	-0.013798766
30	0x3ca7cdce	0.020483878
31	0xbcb24c56	-0.021764915
32	0xbcd6a129	-0.026199894
33	0xbd5c06c7	-0.0537174
34	0xbd630dda	-0.05543313
35	0x3c1d6a97	0.0096079325
36	0x3d837648	0.06419045
37	0xbd83c3b2	-0.0643381
38	0x3d07973d	0.033103216
39	0x3c15fabc	0.009154018
40	0x3c11116b	0.00885425
41	0xbd3b57ce	-0.045738034
42	0x3d81e919	0.06343288
43	0x3b3761c2	0.0027981852
44	0x3cbce152	0.02305666
45	0xbd25f590	-0.04051739
46	0x3cd58ce3	0.026068157
47	0xbcad6627	-0.021166874
48	0xbcd0b407	-0.025476469
49	0x3cd9c1c7	0.026581658
50	0x3cc618da	0.024181772
51	0xbcced8b0	-0.025249809
52	0x3d0447b6	0.03229495
53	0xbb076494	-0.0020659314
54	0xbaba832f	-0.001422977
55	0xbcdf3fb8	-0.027252063
56	0x3c4cacc5	0.012492363
57	0xbaac1dde	-0.001313146
58	0x3b8c6346	0.0042842953
59	0xbd34e1ad	-0.044160534
60	0x3c36be4b	0.011153768
61	0x3c993597	0.018702311
62	0x3c109059	0.008823478
63	0xbcaef216	-0.02135567
64	0x3d182626	0.037145756
65	0x3d06f99d	0.032952894
66	0x3cb78a28	0.022404745
67	0xbd42f25b	-0.04759441
68	0x3c9418a2	0.018078152
69	0x3c152a7c	0.009104367
70	0x39df3cee	0.0004257927
71	0xbc567994	-0.01309051
72	0x3d2fe8f6	0.04294678
73	0xbcd9207e	-0.026504751
74	0xbca602bf	-0.020264981
75	0xbc87fc52	-0.016599808
76	0x3d1baf53	0.038009
77	0x3b83e2c6	0.0040248362
78	0x3dc56ea0	0.09640241
79	0xbd3f9f29	-0.046782646
80	0xbd88a3a5	-0.06671838
81	0xbd1cbee3	-0.03826798
82	0x3d368d5b	0.0445684
83	0x3addc359	0.001691918
84	0x3c59eecb	0.013301562
85	0xbd14058a	-0.036138095
86	0xbd6a77e1	-0.05724323
87	0xbccc3ded	-0.024931872
88	0xbca65229	-0.020302849
89	0x3c82579c	0.015910916
90	0xbcecc3e6	-0.028902005
91	0x3cd59dfc	0.02607631
92	0xbaae3e35	-0.0013293686
93	0xbce740a6	-0.028229069
94	0x3c2bbded	0.010482294
95	0x3caa9809	0.02082445
96	0xbc21975e	-0.009862749
97	0xbc532af7	-0.012888662
98	0xbbd00cb2	-0.0063491696
99	0x3b0f2fd3	0.0021848574

fc2.weight f4 [10, 100]
0	0xbe69e247	-0.22840224
1	0x3d549847	0.051903035
2	0x3e0fe5f5	0.14052565
3	0x3d9197e2	0.071090475
4	0xbe720674	-0.23635274
5	0x3dbc1682	0.091839805
6	0xbdd6bff5	-0.10485832
7	0x3dbb4c96	0.09145467
8	0xbed62076	-0.4182164
9	0xbbf0422a	-0.007332106
10	0xbe6407b1	-0.22268559
11	0xbd033452	-0.03203232
12	0x3e0c4d7a	0.1370143
13	0xbe7246a8	-0.23659766
14	0xbea7682a	-0.32696658
15	0xbe25c2ef	-0.16187643
16	0x3e1b83b0	0.15186954
17	0xbd897c85	-0.06713203
18	0x3d5ee5dc	0.05441843
19	0x3c54ba5f	0.012983887
20	0xbda0286e	-0.07820211
21	0xbd9a99c9	-0.075488634
22	0x3c2e1a49	0.010626384
23	0xbe613fa2	-0.2199693
24	0xbe8d25d9	-0.27567938
25	0x3d24957e	0.04018163
26	0xbeaccca5	-0.3374988
27	0xbdd40ffe	-0.10354613
28	0x3de6d720	0.112715006
29	0x3db49f48	0.08819443
30	0x3cf83082	0.030296568
31	0xbe1f6898	-0.15567243
32	0xbe95f6bc	-0.29289806
33	0xbeb79680	-0.3585701
34	0x3dfdd2ab	0.12393697
35	0xbf01ac20	-0.50653267
36	0x3dd7f84f	0.10545408
37	0x3e82e806	0.25567645
38	0xbe059bd8	-0.13047731
39	0x3e1b1543	0.1514483
40	0x3ed7e943	0.42170152
41	0xbedfdc31	-0.4372268
42	0x3d59fd15	0.053219873
43	0x3e63d0ea	0.22247663
44	0xbe4ab418	-0.19795263
45	0xbd600bed	-0.054698873
46	0xbe734d47	-0.23759948
47	0xbf3bffb2	-0.73437035
48	0x3e22f3f2	0.1591337
49	0xbe1f786e	-0.15573284
50	0xbe973f28	-0.29540372
51	0x3dc2585d	0.0948951
52	0x3bb8d7ac	0.0056409445
53	0xbf17618e	-0.5913323
54	0x3e06412e	0.13110802
55	0xbedfa3d6	-0.43679684
56	0xbe9134c8	-0.2836058
57	0xbd8d3541	-0.06894923
58	0xbe47eebd	-0.19524665
59	0x3ea7a4d9	0.32742956
60	0x3dbbe493	0.091744564
61	0xbeff2989	-0.49836376
62	0xbee41af3	-0.4455181
63	0xbf23163c	-0.637058
64	0x3de07ace	0.10960923
65	0xbee53258	-0.44764972
66	0xbcb8bbad	-0.022550428
67	0x3d029610	0.031881392
68	0x3e1d71b9	0.15375413
69	0x3d379bbf	0.044826265
70	0xbd4366d3	-0.047705483
71	0x3e74e91b	0.23917048
72	0x3e6509f0	0.22367072
73	0x3d4d9d38	0.050198764
74	0xbe1f75d7	-0.15572296
75	0xbedd39b4	-0.43208086
76	0xbec21941	-0.37909892
77	0xbde91cda	-0.11382456
78	0xbe33ff89	-0.17577948
79	0xbe98fc16	-0.29879826
80	0xbe5982f7	-0.21241365
81	0xbe818d77	-0.25303242
82	0x3e11e9c3	0.1424933
83	0xbb3dd823	-0.002896794
84	0xbc402d4a	-0.011729548
85	0x3e008731	0.12551571
86	0x3e08b4ca	0.13350216
87	0x3e16607f	0.14685248
88	0xbdecc94a	-0.1156183
89	0xbe8c360e	-0.2738499
90	0x3e59232a	0.2120482
91	0xbd45f09b	-0.048325162
92	0xbd515caa	-0.051113762
93	0x3dc9cef2	0.09853925
94	0x3e61314c	0.21991462
95	0xbc51a2b0	-0.012795135
96	0xbe671a97	-0.22568737
97	0xbefb8344	-0.49123585
98	0x3d9fa874	0.07795802
99	0xbdc125cc	-0.09431037
100	0xbe2868c9	-0.16446222
101	0xbe0f712d	-0.14008017
102	0xbd22a0fc	-0.039704308
103	0xbeb78f2c	-0.3585142
104	0xbe1f42d5	-0.15552838
105	0x3d1cb544	0.038258806
106	0xbe3d4630	-0.18483806
107	0xbec49159	-0.3839214
108	0xbd66481b	-0.05622111
109	0xbe923398	-0.28554988
110	0xbceda778	-0.02901052
111	0x3cad7595	0.021174232
112	0x3e9f2e61	0.31090072
113	0xbe818dbf	-0.25303456
114	0xbd112862	-0.035438903
115	0xbe08abbd	-0.13346763
116	0xbec7b7ca	-0.39007407
117	0x3ae17461	0.0017200821
118	0xbda7dd6b	-0.08196529
119	0x3ebd72f6	0.3700177
120	0xbc5e88ae	-0.013582392
121	0xbba35ac6	-0.0049851863
122	0xbe7b59dc	-0.24545997
123	0xbec0bc91	-0.37643865
124	0x3e64c20d	0.2233965
125	0x3e0d93b6	0.13825879
126	0x3e18df81	0.1492901
127	0x3ed07e96	0.40721577
128	0xbe6cc7ee	-0.23123142
129	0x3e7f2481	0.24916269
130	0xbf03d107	-0.51490825
131	0x3e32c405	0.17457588
132	0x3e97b8d0	0.29633188
133	0x3edd93a3	0.432767
134	0x3e94668c	0.28984487
135	0x3d0e24f0	0.034703195
136	0x3c25c2ba	0.010117227
137	0xbe998e72	-0.2999149
138	0xbd0bc8f7	-0.034127202
139	0xbecdcf3f	-0.4019718
140	0xbf05341c	-0.5203264
141	0x3d2e82f7	0.042605367
142	0x3e253be2	0.16136125
143	0xbe8b8c2d	-0.27255383
144	0xbec23951	-0.37934354
145	0xbc9fb0bd	-0.019493455
146	0xbd378b37	-0.0448105
147	0x3dfe6ca7	0.124230675
148	0xbe826365	-0.25466457
149	0x3f01ae08	0.50656176
150	0x3d053954	0.032525375
151	0x3e1f730c	0.1557123
152	0xbde1ca7e	-0.110249504
153	0xbeb71e8c	-0.35765493
154	0x3d67063a	0.056402422
155	0xbdb7dde0	-0.08977866
156	0xbe9fce70	-0.31212187
157	0x3e9592cb	0.29213557
158	0xbee2d168	-0.4430039
159	0xbef2469d	-0.473195
160	0x3e7b1c22	0.2452245
161	0xbec322da	-0.38112527
162	0x3e99811a	0.2998131
163	0xbe2b06ee	-0.16701862
164	0xbf001990	-0.50039005
165	0xbd3e3499	-0.04643688
166	0xbd057c72	-0.032589383
167	0x3da67a46	0.081287906
168	0xbe83ce28	-0.25743222
169	0xbd683c28	-0.056697994
170	0x3d01790b	0.031609576
171	0x3e4c9961	0.19980384
172	0xbdb0bd53	-0.08629861
173	0x3d24a676	0.040197812
174	0x3edaec21	0.42758277
175	0xbf007d10	-0.5019083
176	0xbe7d2bb4	-0.24723703
177	0xbe6fa6b2	-0.23403433
178	0xbe560b00	-0.20902634
179	0xbdfc0086	-0.12304787
180	0x3e7b1dfe	0.2452316
181	0xbd54a33e	-0.051913492
182	0xbec8627e	-0.39137644
183	0xbe72e17e	-0.23718831
184	0xbf0bed31	-0.546588
185	0xbe21e6d6	-0.15810713
186	0x3dd45a7c	0.10368821
187	0xbe8bd578	-0.273113
188	0x3d54593b	0.05184291
189	0xbe710d14	-0.23540145
190	0x3db3d428	0.087807
191	0xbe808726	-0.2510311
192	0xbde1215f	-0.10992693
193	0x3dd65e67	0.104672246
194	0x3e4dd1ec	0.2009961
195	0x3e791697	0.24325024
196	0xbcd0a575	-0.025469521
197	0xbe35f21d	-0.1776814
198	0xbe5fa57f	-0.21840475
199	0xbe700b46	-0.234418
200	0xbe255e7e	-0.16149327
201	0x3dfef2f6	0.12448685
202	0x3de83279	0.11337752
203	0xbe7e10ff	-0.24811171
204	0xbf468a17	-0.7755446
205	0x3e0fe313	0.14051466
206	0x3d9f4699	0.07777137
207	0xbe2c18b2	-0.16806296
208	0xbec3f5c2	-0.38273436
209	0xbd79d19b	-0.06099091
210	0xbede17ca	-0.43377525
211	0xbdb095a0	-0.08622289
212	0x3e30ae5e	0.17254016
213	0xbed3df16	-0.4138114
214	0x3d362c89	0.044476066
215	0xbd4bba6b	-0.04973833
216	0xbe123e26	-0.1428152
217	0x3d9f7ca4	0.07787445
218	0x3e87b3e0	0.2650442
219	0xbd5b459d	-0.053533185
220	0xbedb55ac	-0.428388
221	0x3e563090	0.20916963
222	0x3da22a22	0.079181924
223	0xbd1010eb	-0.035172384
224	0x3e6cd5b3	0.23128395
225	0xbe6b9742	-0.23006919
226	0x3ddd2deb	0.10799774
227	0xbe3c0288	-0.1836034
228	0xbde329bc	-0.110919446
229	0xbead7c7a	-0.3388403
230	0xbd4bef39	-0.049788687
231	0xbe14c5a6	-0.14528522
232	0xbf28a508	-0.6587682
233	0xbd8ddf4c	-0.06927356
234	0x3e99de5b	0.30052456
235	0xbe3ff15f	-0.1874442
236	0xbb6fdda4	-0.0036600614
237	0x3e3430a0	0.17596674
238	0x3dc9bd7b	0.09850594
239	0x3da2feca	0.079587534
240	0xbe892fae	-0.2679419
241	0x3e29c200	0.16577911
242	0xbe2be526	-0.16786632
243	0x3cae85b9	0.021303998
244	0xbe0a1161	-0.13483192
245	0x3e6885d2	0.22707298
246	0x3db33533	0.08750381
247	0x3eb0fdf6	0.34568757
248	0xbf2d3742	-0.6766244
249	0xbeca4035	-0.3950211
250	0xbd9c39cf	-0.076282136
251	0x3de3fecf	0.11132585
252	0x3d0fc309	0.03509811
253	0xbe475da1	-0.1946931
254	0xbefd226a	-0.49440318
255	0xbe3926b9	-0.18081178

fc2.bias f4 [10]
0	0xbc168d9f	-0.009189039
1	0x3b9c6f32	0.0047739977
2	0x3cf561c7	0.02995385
3	0x3d986fba	0.07443185
4	0x3d6567b3	0.0560071
5	0xbd4732a4	-0.04863228
6	0x3d85585c	0.06510994
7	0xbcdb9879	-0.026806103
8	0x3e0f5ba8	0.13999808
9	0x3dad73a0	0.08469319
