models/shear_fc100_09.pt (torch_old, 318764 bytes, 4 tensors)

fc1.weight f4 [100, 784]
0	0xbd1d54b7	-0.03841087
1	0x3cb65783	0.022258526
2	0xbbfc0c00	-0.00769186
3	0x3bf3192a	0.0074187713
4	0xbc7fecd5	-0.01562043
5	0xbc93ab3f	-0.018025992
6	0x3c874d69	0.016516404
7	0xbcfc18be	-0.030773517
8	0x3cbb07c7	0.022830857
9	0xbcf53fb5	-0.029937604
10	0xbbb5a21e	-0.0055430075
11	0xbce7d493	-0.028299605
12	0x3c1e2c8b	0.009654175
13	0x3ce06eb0	0.02739653
14	0xba21337d	-0.0006149335
15	0x3c93ae3f	0.018027423
16	0x3c93ab7a	0.018026102
17	0xbcabba9f	-0.020963011
18	0x3c31614f	0.010826423
19	0x3b9f8756	0.004868428
20	0xbcc4237b	-0.0239427
21	0x3cd977e1	0.02654642
22	0xbba97a3a	-0.0051720412
23	0xbd0b8a8d	-0.03406768
24	0xbc2d2488	-0.010567792
25	0xbd274a33	-0.040842246
26	0x3b2de359	0.0026533215
27	0xbc44cf74	-0.012012351
28	0xbc5972b8	-0.01327198
29	0x3cb51067	0.022102548
30	0x3c17ff91	0.00927724
31	0xbc8c6fb1	-0.017143102
32	0xbd1d419b	-0.038392644
33	0xbce01963	-0.027355855
34	0x3be9823d	0.0071261213
35	0xbcfb7282	-0.03069425
36	0x3cd64f30	0.026160806
37	0x3b6227b4	0.0034508528
38	0x3d0acbc9	0.03388575
39	0x3ce0bb8e	0.027433183
40	0x3d2f0d51	0.04273731
41	0xbcc54415	-0.024080316
42	0xbc99198f	-0.018688945
43	0x3d10d61b	0.035360437
44	0x3c5a9eda	0.013343537
45	0x3c4b08cb	0.012392233
46	0xbaca34a9	-0.0015427071
47	0x3b8cd53b	0.00429788
48	0x3b9ea15a	0.004841012
49	0x3ade0510	0.0016938765
50	0x3b82e1b7	0.0039941925
51	0x3b9f312e	0.0048581576
52	0xbc04e3c6	-0.008110946
53	0x3c471854	0.012151796
54	0x3befe114	0.0073205326
55	0xba9c575c	-0.0011927891
56	0x3cf863e5	0.03032107
57	0x3accdf93	0.0015630595
58	0xbd0fc964	-0.03510417
59	0x3cbc711a	0.02300315
60	0x3c212ce7	0.009837366
61	0x3b23ae98	0.0024975892
62	0xbcb888fa	-0.022526253
63	0x3ca3322b	0.019921383
64	0x3c4b5314	0.012409944
65	0x3ca8fe71	0.02062914
66	0x3caf3d76	0.021391612
67	0x3db06883	0.08613684
68	0x3de0e5e7	0.109813504
69	0x3d886a75	0.0666093
70	0x3de48ec2	0.111600414
71	0x3e02d6f5	0.12777312
72	0x3dac8f1e	0.08425735
73	0x3db8f333	0.090307616
74	0x3d80f3ef	0.06296527
75	0x3d7c1332	0.061541744
76	0x3d14672e	0.036231212
77	0xbbb1e648	-0.005429063
78	0x3c96dc0b	0.018415472
79	0xbc30136e	-0.01074682
80	0xbbdfd1bc	-0.006830422
81	0xbc2aad49	-0.010417291
82	0xbd028f61	-0.031875018
83	0x3a1be1fe	0.0005946456
84	0x3b6e0d1e	0.0036323736
85	0xbce7ac6c	-0.02828046
86	0x3c515aa3	0.012777957
87	0x3cd65c1f	0.026166974
88	0x3c914f74	0.017738082
89	0xbcb0fd69	-0.02160521
90	0x3d56cb47	0.052439954
91	0x3cccaa30	0.024983495
92	0x3dcb3626	0.09922437
93	0x3df9981e	0.12187217
94	0x3e3a52f0	0.181957
95	0x3e261d58	0.16222131
96	0x3e27eece	0.1639969
97	0x3e810754	0.25200903
98	0x3e8480ac	0.2587942
99	0x3e58d0ba	0.21173373
100	0x3e565826	0.20932063
101	0x3e420169	0.1894585
102	0x3e113b0b	0.1418268
103	0x3e12c451	0.14332701
104	0x3e083aaf	0.13303636
105	0x3d29c662	0.04144896
106	0x3d66465d	0.056219447
107	0xbb83fb12	-0.0040277326
108	0xbcc4b95a	-0.024014164
109	0xbb9e36ad	-0.004828295
110	0x3aeee256	0.0018225412
111	0x3b03b709	0.002009811
112	0x3cb8fc4b	0.02258124
113	0x3ccfd44b	0.025369784
114	0x3d3d740f	0.04625326
115	0x3d0ad22c	0.03389184
116	0x3c733797	0.014844797
117	0x3d4a9a90	0.04946381
118	0x3ca59e66	0.020217132
119	0x3ddea291	0.10870851
120	0x3e16dc48	0.14732468
121	0x3e2a54ed	0.16633959
122	0x3e23106c	0.15924233
123	0x3dd62ec7	0.10458141
124	0x3d0f165f	0.034933444
125	0x3df54a26	0.11977033
126	0x3df792af	0.120885246
127	0x3e0995d7	0.13436066
128	0x3e2f8082	0.17138866
129	0x3e171bb5	0.14756663
130	0x3e1f1b10	0.15537667
131	0x3e40c9b5	0.18826945
132	0x3e4e0708	0.2011987
133	0x3df697c5	0.120406665
134	0x3d1ca6d1	0.038245026
135	0x3cd2f66e	0.025752272
136	0x3d1d18f8	0.03835389
137	0x3b435c8f	0.0029809808
138	0xbc750543	-0.014954868
139	0x3c5fb4e1	0.013653965
140	0x3d6849a7	0.056710865
141	0x3d4b9831	0.049705688
142	0x3c7458a9	0.014913716
143	0xb93ad500	-0.00017817691
144	0x3d2e5411	0.04256064
145	0xbc11a184	-0.008888606
146	0xbc54c2b8	-0.012985878
147	0xbc925b8f	-0.017865924
148	0x3da28931	0.079363234
149	0x3dd83d6a	0.10558589
150	0x3dd25ebd	0.10271976
151	0x3dfd768f	0.12376129
152	0x3e0fdc31	0.1404884
153	0x3dce36eb	0.100690685
154	0x3dd476b4	0.10374203
155	0x3d43fe75	0.04785009
156	0x3d53f0a7	0.051743176
157	0x3d7745cb	0.060369294
158	0x3d86f967	0.065905385
159	0x3df1af4c	0.11801013
160	0x3dc5661b	0.09638616
161	0x3db5b3a0	0.088721514
162	0x3d1b00e0	0.03784263
163	0xbcb353be	-0.021890517
164	0x3c0d401e	0.008621244
165	0x3bc7eaaf	0.0061009745
166	0xbc0e4dcd	-0.008685541
167	0xbc95f8fc	-0.018307202
168	0x3e03ca15	0.12870057
169	0x3d78266d	0.06058352
170	0x3c62aa75	0.013834585
171	0x3d0c7b07	0.034297016
172	0xbc8589ed	-0.01630112
173	0xbd10846f	-0.03528255
174	0xbd8a9b70	-0.067679286
175	0xbc8a030f	-0.016847162
176	0x3d8a3ea6	0.067502305
177	0x3cce0c00	0.025152206
178	0x3c0da7e6	0.008645987
179	0x3dc6286e	0.0967568
180	0x3e4763ed	0.19471712
181	0x3e89bc45	0.2690145
182	0x3e836359	0.25661734
183	0x3e33773a	0.1752595
184	0x3d4b9af8	0.049708337
185	0xbd4661d5	-0.048433144
186	0xbd6aea9a	-0.05735264
187	0xbd94c105	-0.07263378
188	0xbd8d2f9f	-0.06893849
189	0xbb29be46	-0.0025900765
190	0xbcfddeff	-0.030990122
191	0x3ca1538e	0.019693162
192	0x3cc4abda	0.024007726
193	0x3d6d32b3	0.05790968
194	0x3ca1f2d6	0.019769114
195	0x3cb16843	0.021656161
196	0x3cdf52a7	0.027261091
197	0x3b91c327	0.004448313
198	0x3d5ddcd8	0.05416569
199	0x3ca7e33d	0.020494098
200	0x3d2095b6	0.039205275
201	0x3d102a2c	0.03519647
202	0x3d082c64	0.03324546
203	0x3ddf3a6e	0.108998165
204	0x3e037c7a	0.12840453
205	0x3e88c2e0	0.26711178
206	0x3e7ef48a	0.24897972
207	0x3e94ffc3	0.2910138
208	0x3e9f1c7d	0.31076422
209	0x3e58f427	0.21186887
210	0x3e3df01c	0.18548626
211	0xbcc8ba54	-0.02450291
212	0xbdde7d72	-0.108637705
213	0xbe450908	-0.19241726
214	0xbe48c81c	-0.19607586
215	0xbe59ffa8	-0.21288931
216	0xbe4c1b3b	-0.19932263
217	0xbe0265d6	-0.1273416
218	0xbe1fbebd	-0.15600105
219	0xbe28cbef	-0.16484044
220	0xbdfd09d3	-0.123553894
221	0xbd87eae6	-0.066366
222	0x3addb197	0.0016913888
223	0xbcc49b16	-0.023999732
224	0xbd25aa19	-0.04044542
225	0x3c1aefab	0.009456555
226	0xbce05496	-0.027384084
227	0xbbee45b8	-0.0072714947
228	0x3cb8fe7e	0.022582289
229	0x3c4ccf61	0.012500615
230	0xbbc49aef	-0.005999915
231	0x3b3f2a54	0.0029169517
232	0x3d38db53	0.04513104
233	0x3dc291ff	0.09500503
234	0x3e557d3d	0.20848556
235	0x3e8b6910	0.27228594
236	0x3e496dad	0.19670744
237	0x3e042618	0.12905157
238	0xbd98ddec	-0.07464203
239	0xbe778333	-0.24171142
240	0xbec2b1e3	-0.38026342
241	0xbebe776a	-0.3720048
242	0xbea79fd0	-0.32739115
243	0xbe9d6f10	-0.30748796
244	0xbeae3c80	-0.34030533
245	0xbe9ed6bb	-0.310232
246	0xbea1aac5	-0.315756
247	0xbe7fa7d3	-0.24966364
248	0xbe1495c1	-0.14510252
249	0xbd444fdc	-0.047927722
250	0xbd551589	-0.05202249
251	0xbc92eb4b	-0.017934462
252	0x3c9c3f8b	0.019073268
253	0xbd574113	-0.052552294
254	0x3d0ce21a	0.034395315
255	0x3cb9903d	0.022651786

fc1.bias f4 [100]
0	0x3d174678	0.03693244
1	0x3bafe2ea	0.0053676264
2	0xba12e9f2	-0.00056043186
3	0xbcbfbebb	-0.023406377
4	0xbc4242c4	-0.0118567385
5	0x3c4cce1a	0.01250031
6	0xbce7d0f0	-0.028297871
7	0x39a9a02b	0.00032353526
8	0xbcf626d6	-0.030047815
9	0xbb9aea4f	-0.004727639
10	0xbc4bf650	-0.012448862
11	0xbd71240b	-0.058872264
12	0x3d643410	0.055713713
13	0xbc9fa5b6	-0.019488197
14	0xbc5d3c1b	-0.0135031
15	0xbd916689	-0.07099635
16	0x3ce89135	0.028389553
17	0xbbffacdf	-0.0078025903
18	0x3c28c18e	0.010300053
19	0xbd13e174	-0.03610368
20	0x3d25521f	0.04036152
21	0x3d5c0ca4	0.053722993
22	0xbd84e69f	-0.064893
23	0x3d289576	0.041158162
24	0xbb899b26	-0.0041994033
25	0xbce4bab6	-0.027921062
26	0xbceb7054	-0.028740086
27	0xbd4ffe36	-0.050779544
28	0xbc81c269	-0.015839772
29	0xbbacb3bc	-0.0052704494
30	0x3d124e67	0.0357193
31	0xbce1c372	-0.027559016
32	0xbda3b7ea	-0.07994063
33	0x3cd316bd	0.025767678
34	0x3cb72273	0.022355294
35	0xbd858556	-0.065195724
36	0x3d806d05	0.06270794
37	0x3d018b82	0.031627186
38	0xbc1ef5b5	-0.009702136
39	0x3d148a9b	0.036264997
40	0xbbb4b170	-0.0055143163
41	0x3d76c8de	0.060250156
42	0xbd37f25f	-0.044908877
43	0xbd8fa538	-0.07013935
44	0xbc46f144	-0.012142483
45	0xbc91825d	-0.017762357
46	0x3cf0902f	0.029365627
47	0xbaae7e29	-0.0013312745
48	0xbc3996a8	-0.011327423
49	0x3d2b5def	0.04183763
50	0x3c3ad9ac	0.011404436
51	0xba034f18	-0.00050090393
52	0x3c5d82e4	0.013519976
53	0xbd29aae0	-0.041422725
54	0x3d71fc07	0.059078243
55	0xbd6397d3	-0.055564713
56	0x3cf538cc	0.02993431
57	0x3b1a08db	0.0023503813
58	0xbbf7660d	-0.007550007
59	0xbc2ea0b0	-0.010658428
60	0xbd0cb9c8	-0.034356862
61	0xbd1fa4bb	-0.03897546
62	0xbcb083e2	-0.021547262
63	0xbc630026	-0.013855016
64	0xbc23752f	-0.009976669
65	0xbd9152fe	-0.07095908
66	0x3cca0f27	0.024665428
67	0xbcbd16aa	-0.023082096
68	0xbd32f849	-0.043693814
69	0x3cba9940	0.022778153
70	0xbd8d2f19	-0.06893749
71	0x3d5b5110	0.053544104
72	0xbd60b512	-0.054860182
73	0xbd77c820	-0.06049359
74	0x3e1b3f9c	0.15160984
75	0xbc64240c	-0.01392461
76	0xbd1610d2	-0.036637135
77	0xbc874100	-0.016510487
78	0xbd19c154	-0.037537888
79	0xbd03c516	-0.032170378
80	0xbc56ca2f	-0.013109728
81	0x3c11da3f	0.008902132
82	0x3bfd0315	0.0077213147
83	0xbcd4e36e	-0.025987353
84	0xbd9b18de	-0.075731024
85	0xbd3515fc	-0.04421042
86	0x3c89bf5e	0.016814884
87	0x3d07a601	0.033117298
88	0xbcba4378	-0.02273725
89	0xbd9c1faf	-0.07623231
90	0xbcc0f040	-0.02355206
91	0x3cac8e11	0.021063836
92	0x3ceb2d43	0.028708106
93	0xbc95cf99	-0.018287467
94	0xbbae2fde	-0.005315765
95	0x3d792263	0.06082381
96	0x3bfccb52	0.0077146674
97	0xbbf02941	-0.0073291366
98	0xbc5e0c83	-0.013552788
99	0xbd1c2161	-0.03811777

fc2.weight f4 [10, 100]
0	0x3d162bce	0.03666287
1	0x3d178e19	0.03700075
2	0x3a975ebb	0.0011548618
3	0x3c6b2c7a	0.014353866
4	0xbf2f2056	-0.68408716
5	0xbe2947e2	-0.16531327
6	0xbd4804b9	-0.04883263
7	0xbf0d094e	-0.5509232
8	0xbeae3975	-0.3402821
9	0xbe6f3042	-0.23358253
10	0xbf29a742	-0.6627084
11	0xbeae3f90	-0.3403287
12	0x3d6bac1f	0.057537194
13	0xbeeb1d1d	-0.4592065
14	0x3d5277dc	0.051383838
15	0xbe2d19e1	-0.16904403
16	0xbc0d7b97	-0.008635423
17	0xbed2fb88	-0.41207528
18	0x3cf28e35	0.029608825
19	0xbe6b219b	-0.22962038
20	0xbc6c5605	-0.0144248055
21	0x3d8d694e	0.06904851
22	0x3e6d8970	0.2319696
23	0xbd5b74e3	-0.05357827
24	0x3e05be05	0.13060768
25	0xbd1d1418	-0.03834924
26	0xbe048d1c	-0.12944454
27	0xbe21ee36	-0.15813527
28	0xbf518818	-0.8184829
29	0xbeeb158b	-0.45914873
30	0x3dc0e263	0.0941818
31	0xbe58adff	-0.21160124
32	0xbf08b0bf	-0.53394693
33	0x3db7a29f	0.089665644
34	0xbf192bca	-0.5983244
35	0xbcd58ca5	-0.026068041
36	0x3da65dde	0.081233725
37	0x3e09e63f	0.13466738
38	0xbe234ea7	-0.15947972
39	0x3da6f409	0.08152015
40	0xbdabf78c	-0.08396825
41	0x3db3610d	0.08758745
42	0x3e8e6122	0.2780848
43	0xbf07018c	-0.52736735
44	0x3d0698ef	0.032860693
45	0xbe7b3641	-0.24532415
46	0x3bba1468	0.005678702
47	0x3e0ae6c2	0.1356459
48	0x3d1c5fe1	0.038177375
49	0xbca5cdaf	-0.02023968
50	0xbe4910de	-0.1963534
51	0xbe9e8a2b	-0.3096479
52	0x3d894cc1	0.06704093
53	0xbe7d5839	-0.24740686
54	0x3d297ee3	0.041380774
55	0x3e2c44fd	0.16823192
56	0xbdef72b2	-0.11691798
57	0x3e2a0976	0.16605172
58	0xbf07810f	-0.529313
59	0x3cd1565f	0.02555388
60	0xbb60e20e	-0.0034314427
61	0xbef79322	-0.4835444
62	0xbd96976b	-0.073530994
63	0xbd891e83	-0.06695273
64	0x3d5bb048	0.05363491
65	0xbe8e0286	-0.277363
66	0x3d5c4f86	0.053786777
67	0x3e6bb148	0.23016846
68	0xbf2a01bb	-0.6640889
69	0xbeba42f6	-0.36379212
70	0x3ebbd171	0.3668323
71	0x3ebbecd1	0.36704114
72	0xbda1de83	-0.07903769
73	0x3e952411	0.2912908
74	0xbcc520f3	-0.024063563
75	0x3e0dfdb7	0.13866316
76	0x3e6e8567	0.23293076
77	0xbe5c9661	-0.2154174
78	0xbf113180	-0.56716156
79	0xbe941cd6	-0.2892825
80	0xbcf24a1e	-0.029576357
81	0x3e0fd30e	0.14045355
82	0xbf1d9c8a	-0.61566985
83	0xbc991fbf	-0.018691896
84	0xbe6a24d5	-0.22865613
85	0xbf23fffa	-0.64062464
86	0x3d2e9259	0.042620037
87	0xbe04c442	-0.12965491
88	0xbeaa2705	-0.33232895
89	0xbd12617f	-0.03573751
90	0x3d3061dc	0.043062076
91	0x3c84cac5	0.01620997
92	0x3df21cc1	0.118218906
93	0xbe37c02c	-0.17944402
94	0xbd744267	-0.05963364
95	0x3db607c4	0.088882
96	0x3e22ce1f	0.15898941
97	0xbf301b5f	-0.68791765
98	0xbe9c1577	-0.30485126
99	0xbcb9c95b	-0.022679022
100	0x3ec03dce	0.37547153
101	0xbece8d0d	-0.40341988
102	0xbf525203	-0.8215639
103	0xbceff6fe	-0.02929258
104	0xbe4a2f4d	-0.19744606
105	0x3cd7c625	0.0263396
106	0xbe7b193d	-0.24521346
107	0x3d9d8c0d	0.07692728
108	0x3e077586	0.13228425
109	0x3ebd0f39	0.36925676
110	0xbe457cf6	-0.1928595
111	0x3e84c7b8	0.25933623
112	0xbeb11e28	-0.3459332
113	0xbec44502	-0.383339
114	0x3f02893c	0.50990653
115	0x3ebf0499	0.37308195
116	0xbe8e8bb7	-0.2784097
117	0xbea88eee	-0.32921547
118	0xbcbd8f66	-0.023139667
119	0x3da64528	0.08118659
120	0x3e457109	0.192814
121	0xbce15138	-0.027504548
122	0xbe8a599e	-0.27021497
123	0xbd9d8573	-0.07691469
124	0x3ea0a26d	0.3137392
125	0xbe9322f7	-0.28737614
126	0x3f064285	0.5244525
127	0xbd9d8006	-0.07690434
128	0xbe2d9a4f	-0.16953395
129	0xbc1f999e	-0.009741215
130	0xbf155b05	-0.5834201
131	0x3d79d5d5	0.06099494
132	0x3e141e8b	0.14464776
133	0x3eb25ef4	0.34838068
134	0x3e0780f4	0.13232785
135	0xbd3cc968	-0.046090513
136	0xbeb52e1b	-0.35386738
137	0x3e6ff77e	0.23434255
138	0xbc93c56e	-0.018038478
139	0xbd076e35	-0.033064086
140	0xbd6189f9	-0.05506322
141	0xbda6874b	-0.08131274
142	0x3e3fc734	0.18728334
143	0xbf1a2cec	-0.60224795
144	0xbd6ed20a	-0.058305778
145	0xbd7fbdfa	-0.062437035
146	0x3d21ce8b	0.039503615
147	0xbf25c9f0	-0.6476126
148	0x3c0bbb10	0.008528486
149	0xbedbb2ee	-0.4290995
150	0xbe8f35ac	-0.27970636
151	0xbdf11547	-0.117716365
152	0x3ea075d1	0.31339887
153	0x3dc2165d	0.09476922
154	0xbe0da5c2	-0.13832763
155	0x3d6c6d9e	0.057721727
156	0xbe7b8343	-0.24561791
157	0x3efb8e27	0.4913189
158	0x3dcfe95f	0.10151934
159	0x3e9ed097	0.31018516
160	0x3d89189f	0.06694149
161	0xbb197020	-0.002341278
162	0x3e889c23	0.26681623
163	0xbef02401	-0.4690247
164	0xbd84ae81	-0.064785965
165	0x3ebcadac	0.3685125
166	0xbe55e6dd	-0.20888849
167	0xbea8684a	-0.32892066
168	0x3dbd1896	0.09233205
169	0xbd5168af	-0.051125225
170	0xbed88f08	-0.42296624
171	0xbd575cdc	-0.052578792
172	0x3d2f2aff	0.042765614
173	0x3e7efb26	0.24900493
174	0xbe45f4b1	-0.19331624
175	0xbea7394f	-0.3266091
176	0xbe83e9fd	-0.25764456
177	0xbe106163	-0.1409965
178	0x3e51af39	0.20476998
179	0xbd31ab79	-0.04337642
180	0xbef598a2	-0.47968012
181	0xbedebeaf	-0.43504855
182	0xbeff2371	-0.49831727
183	0xbed74b0d	-0.42049447
184	0x3ea770e6	0.32703322
185	0xbd614768	-0.05499974
186	0x3e2d38bb	0.16916172
187	0xbca87bfb	-0.020566931
188	0x3e90ec60	0.2830534
189	0xbec053c4	-0.37563908
190	0x3e9b22cd	0.30299988
191	0xbf074004	-0.52832055
192	0xbf2abec0	-0.6669731
193	0x3e3973c9	0.18110575
194	0xbd1d1835	-0.038353164
195	0xbe426380	-0.18983269
196	0xbe9c5c78	-0.30539298
197	0xbe4f3f02	-0.2023888
198	0xbebd5178	-0.36976218
199	0xbe0513cc	-0.12995833
200	0xbeb3c0f8	-0.3510816
201	0xbe02b955	-0.12766011
202	0x3e4edcbc	0.20201391
203	0xbc7cf1f1	-0.015438543
204	0xbf359dac	-0.70943713
205	0x3e47ef85	0.19524963
206	0xbf03477b	-0.51280946
207	0xbd79e904	-0.061013237
208	0x3e51f2b4	0.2050274
209	0xbe3ba205	-0.18323524
210	0xbf319715	-0.6937116
211	0xbe7fa738	-0.24966133
212	0x3cc20062	0.023681823
213	0xbdd62e43	-0.104580425
214	0xbf4660f2	-0.77491677
215	0x3e876f5b	0.26452145
216	0xbe3e613c	-0.1859178
217	0x3eb813eb	0.35952696
218	0x3e688f2e	0.22710869
219	0xbedc7bbe	-0.43063158
220	0xbc419218	-0.011814617
221	0x3e6d886c	0.23196572
222	0x3d5b42b1	0.0535304
223	0xbe2f3fb8	-0.1711415
224	0xbcc89c1f	-0.024488507
225	0x3dd7ec78	0.1054315
226	0x3d617cd9	0.055050705
227	0xbc563df8	-0.013076298
228	0xbe0410bd	-0.1289701
229	0x3d946aea	0.07246955
230	0xbc8a0d56	-0.016852062
231	0xbdbe4706	-0.092908904
232	0xbf1b888d	-0.60755235
233	0x3db7b295	0.08969609
234	0x3eb2d6f6	0.34929627
235	0xbf287804	-0.6580813
236	0x3d3e6ddc	0.04649149
237	0x3d239c82	0.03994418
238	0xbe1f5639	-0.15560235
239	0xbdc5644e	-0.09638272
240	0x3f0c90f5	0.54908687
241	0xbd219943	-0.039452802
242	0x3d90357b	0.070414506
243	0x3e8119e2	0.2521506
244	0xbd39a8b1	-0.045326892
245	0x3d912814	0.070877224
246	0xbda7d3b7	-0.08194678
247	0xbd8a6c00	-0.067588806
248	0x3cb2ca58	0.021825
249	0xbe59d02d	-0.21270819
250	0xbe91ea88	-0.28499246
251	0x3d4b376e	0.04961341
252	0xbd182391	-0.037143294
253	0xbede8f31	-0.4346862
254	0xbf05b82b	-0.52234143
255	0xbea000fb	-0.31250748

fc2.bias f4 [10]
0	0xbd4b781b	-0.04967509
1	0xbccfb4b1	-0.025354715
2	0x3c138990	0.009004965
3	0x3df3fa20	0.11912942
4	0x3e188b5a	0.14896908
5	0xbdebd2e8	-0.115148365
6	0xbd0038b8	-0.03130409
7	0xbd71a09a	-0.058991052
8	0x3e736db3	0.23772316
9	0x3dd7dd17	0.105402164
